backend/model.tflite (tflite, 3048 bytes, 6 tensors)

arith.constant f4 [4, 8]
0	0x3ecfa83e	0.40558046
1	0xbcdb5dcd	-0.026778126
2	0xbe952dc9	-0.29136494
3	0x3f287f5f	0.6581935
4	0xbf208470	-0.62702084
5	0xbe7b4113	-0.24536543
6	0x3f36b4e6	0.7136978
7	0xc038480a	-2.879397
8	0x3ea4124b	0.32045206
9	0x3eb67a5e	0.35640234
10	0x3eeb7fac	0.45995843
11	0x3e9b08f2	0.30280262
12	0xbe0e47c8	-0.1389457
13	0x3f9550aa	1.1665242
14	0xbf52de2b	-0.8237025
15	0xbdfcde5c	-0.12347099
16	0xbf621af8	-0.883224
17	0xbe8c802a	-0.2744153
18	0x3e7956f5	0.24349578
19	0x3f1b06c3	0.6055719
20	0xbe76d108	-0.24103177
21	0xbfd2c53b	-1.646644
22	0x3f1f6e65	0.62277824
23	0x3f585074	0.8449776
24	0xbe33d8b3	-0.17563133
25	0x3f13afd9	0.576902
26	0x3f30db9f	0.69085115
27	0xbe0cca08	-0.13748944
28	0xbeef9688	-0.46794534
29	0xbeb8c245	-0.36085716
30	0x3e501241	0.20319463
31	0xbfcc8cb0	-1.5980434

arith.constant1 f4 [8, 16]
0	0xbec63e7c	-0.38719547
1	0xbee377b8	-0.44427276
2	0xbecd2108	-0.40064263
3	0x3f83f3ee	1.0308816
4	0xbf57ff41	-0.8437386
5	0x3ef4f6df	0.47844598
6	0xbeb1f604	-0.34758008
7	0x3ecc021c	0.3984536
8	0x3f9657c3	1.1745533
9	0xbeeeb63a	-0.46623403
10	0xbeb525b8	-0.3538034
11	0xbd752f80	-0.059859753
12	0x3e477925	0.19479807
13	0x3d062c60	0.032757163
14	0x3daa54d7	0.08316963
15	0xbd6187c0	-0.055061102
16	0xbd245a20	-0.040125012
17	0xbeae8b84	-0.34090817
18	0x3e0509e8	0.1299206
19	0xbe8a7820	-0.27044773
20	0xbdeb8d6e	-0.11501585
21	0xbdef9077	-0.11697476
22	0x3ef7372c	0.4828428
23	0x3de95140	0.1139245
24	0xbefa2408	-0.48855615
25	0x3de6a903	0.11262705
26	0x3ead766c	0.3387941
27	0xbdeb09f0	-0.11476505
28	0xbe897aeb	-0.2685159
29	0xbe9fe4a8	-0.31229138
30	0xbdeeef8a	-0.11666782
31	0xbd919510	-0.071085095
32	0x3ee915b4	0.4552437
33	0xbef844f4	-0.48490107
34	0xbd29bf80	-0.041442394
35	0xbed4d614	-0.4156958
36	0x3f16cf91	0.5891047
37	0x3e8df0d1	0.2772279
38	0x3e05d588	0.13069737
39	0x3e84b54c	0.2591957
40	0xbec07424	-0.37588608
41	0x3da7a9e8	0.08186704
42	0x3dc97d63	0.09838369
43	0xbde116a0	-0.109906435
44	0xbeab9f4a	-0.33519965
45	0x3eee6d68	0.46567845
46	0x3e56e37f	0.2098522
47	0xbeb06ae0	-0.3445654
48	0xbea796ac	-0.3273214
49	0x3ee86128	0.45386624
50	0x3ec735c0	0.38908195
51	0xbe736400	-0.23768616
52	0x3e5e5728	0.21712935
53	0xbec61bcc	-0.38693082
54	0xbe9de8b8	-0.30841613
55	0x3e679aa8	0.2261759
56	0x3ea56918	0.32306743
57	0xbeeb112c	-0.4591154
58	0xbea45d88	-0.3210261
59	0xbec1edec	-0.37876832
60	0xbe856cc4	-0.26059544
61	0x3e9f3a6c	0.3109926
62	0x3cb176c0	0.02166307
63	0xbd934920	-0.07191682
64	0x3ef4d274	0.47816813
65	0xbe9260e0	-0.28589535
66	0xbe0bcf38	-0.13653266
67	0xbeb1fba0	-0.34762287
68	0x3d3ea880	0.046547413
69	0xbdbb4b30	-0.091452
70	0x3e84db98	0.25948787
71	0xbd9f8c30	-0.077904105
72	0xbeaf3800	-0.34222412
73	0xbee6fa98	-0.45113063
74	0x3d2774c0	0.040882826
75	0x3eb4bfbc	0.35302532
76	0x3dbc6a80	0.09200001
77	0xbeda0528	-0.4258206
78	0xbeecdca8	-0.46262097
79	0x3ea66b74	0.32503855
80	0x3d8ae5d0	0.067821145
81	0xbedd5b20	-0.43233585
82	0xbeb7a918	-0.35871196
83	0x3f9a4a3f	1.2053908
84	0xbe8b8c79	-0.2725561
85	0xbe201ffa	-0.15637198
86	0xbcc53880	-0.024074793
87	0x3ee606e4	0.44927132
88	0x3f99dc7e	1.2020414
89	0x3ece4b83	0.40291986
90	0xbe9026a0	-0.2815447
91	0xbc306000	-0.010765076
92	0x3e8b17b3	0.2716652
93	0xbe766750	-0.24062848
94	0x3ec9b719	0.39397505
95	0xbeca4924	-0.39508927
96	0x3e782c38	0.24235618
97	0x3da06ec0	0.07833624
98	0xbda05790	-0.07829201
99	0xbec90e9d	-0.39268962
100	0xbe822a33	-0.2542282
101	0x3e1e1e5a	0.15441266
102	0x3ec7d1c0	0.39027214
103	0x3eeaffc0	0.45898247
104	0xbec6d1ea	-0.38832027
105	0x3eef231b	0.4670647
106	0xbea3c79b	-0.31988224
107	0xbe67b8d8	-0.22629106
108	0x3efd925a	0.4952572
109	0xbdc15d40	-0.09441614
110	0x3cbba5b4	0.022906162
111	0x3e8ab3d8	0.27090335
112	0x3d3ffc60	0.046871543
113	0xbeab7a0c	-0.33491552
114	0x3bb65800	0.0055646896
115	0x3f47150d	0.77766496
116	0x3f78f008	0.9724126
117	0xbc21a8ff	-0.009866952
118	0x3e630738	0.22170722
119	0xbd59f0e0	-0.053208232
120	0x3f818e14	1.0121484
121	0x3de77670	0.11301887
122	0xbecf0a10	-0.40437365
123	0x3eb6db8c	0.35714376
124	0xbe36ee4b	-0.17864339
125	0x3ed1e3a0	0.40993977
126	0x3f0de0d7	0.55421203
127	0x3ea8505c	0.3287381

arith.constant2 f4 [4]
0	0x3e566142	0.20935538
1	0x3e4ace5b	0.19805281
2	0x3e1b4b9d	0.15165563
3	0xbeb6be3a	-0.35692006

sequential_1/dense_1_2/BiasAdd/ReadVariableOp f4 [8]
0	0x3de6fa80	0.11278248
1	0xbd1a1706	-0.037619613
2	0xbec23412	-0.37930351
3	0x00000000	0.0
4	0x00000000	0.0
5	0x3f204a85	0.6261371
6	0x3e941e5b	0.2892941
7	0x3f49268b	0.78574437

sequential_1/dense_1/BiasAdd/ReadVariableOp f4 [16]
0	0x00000000	0.0
1	0xbcde8810	-0.027164489
2	0x00000000	0.0
3	0x3f3c585d	0.7357233
4	0x3def338f	0.11679756
5	0xbe52ab45	-0.20573147
6	0x00000000	0.0
7	0x00000000	0.0
8	0x3f37caf1	0.7179404
9	0x3e9fe82b	0.31231818
10	0xbefaf6b1	-0.49016336
11	0x00000000	0.0
12	0x3e99be35	0.3002793
13	0x00000000	0.0
14	0x3ee66693	0.45000133
15	0x00000000	0.0

sequential_1/dense_1/MatMul f4 [16, 3]
0	0xbd332a50	-0.043741524
1	0xbf0b8b94	-0.54509854
2	0xbd3bbaa0	-0.045832276
3	0xbe4a67b8	-0.19766128
4	0x3ddaa327	0.1067565
5	0xbf0c49cd	-0.5480011
6	0xbec512ca	-0.38490897
7	0xbe1baca6	-0.15202579
8	0x3f092a07	0.53579754
9	0xbe9d1771	-0.30681947
10	0x3f8628ce	1.0481203
11	0xbe9ff022	-0.31237894
12	0x3e19480c	0.1496889
13	0xbdb3796f	-0.08763396
14	0xbf01a523	-0.50642604
15	0x3ee16138	0.44019485
16	0x3e351ae7	0.17686044
17	0x3ea7d39d	0.32778636
18	0xbec6b283	-0.3880807
19	0xbef4b530	-0.47794485
20	0x3effdfb2	0.49975353
21	0xbe8846a2	-0.2661639
22	0xbed7c8e6	-0.4214546
23	0xbd2b2f60	-0.041793227
24	0xbefa7a79	-0.48921564
25	0x3f6f4948	0.93471193
26	0xbe74629e	-0.23865744
27	0x3e7d0431	0.2470863
28	0x3f202ea0	0.62571144
29	0xbf1afd3f	-0.6054267
30	0x3db69db3	0.089167975
31	0x3c6147f9	0.01375007
32	0x3e72023b	0.23633663
33	0xbeeac96a	-0.45856792
34	0xbd9ac6fc	-0.075574845
35	0xbee5ea33	-0.44905242
36	0xbd17cdf4	-0.037061647
37	0x3f79ef56	0.9763082
38	0x3f228a85	0.63492614
39	0xbee4776f	-0.4462237
40	0xbedaca20	-0.42732334
41	0xbe6f3138	-0.23358619
42	0x3e1e88fe	0.15481946
43	0xbd878183	-0.06616499
44	0xbe67c4cd	-0.22633667
45	0xbedf4e06	-0.43614215
46	0xbe3006fe	-0.17190167
47	0xbd941e84	-0.07232383
